Found 66647 images belonging to 2 classes.
Train class weights: 
{0: 1.0, 1: 1.0107708553326293}
Found 13917 images belonging to 2 classes.
Validation class weights: 
{0: 1.0, 1: 1.0228197674418604}
Results for my_model_c_with_64_only_900_decay_feb_25_1: 
_________________________________________________________________
Layer (type)                 Output Shape              Param #   
=================================================================
conv2d_1 (Conv2D)            (None, 298, 298, 32)      896       
_________________________________________________________________
activation_1 (Activation)    (None, 298, 298, 32)      0         
_________________________________________________________________
conv2d_2 (Conv2D)            (None, 296, 296, 32)      9248      
_________________________________________________________________
activation_2 (Activation)    (None, 296, 296, 32)      0         
_________________________________________________________________
max_pooling2d_1 (MaxPooling2 (None, 148, 148, 32)      0         
_________________________________________________________________
conv2d_3 (Conv2D)            (None, 146, 146, 64)      18496     
_________________________________________________________________
activation_3 (Activation)    (None, 146, 146, 64)      0         
_________________________________________________________________
conv2d_4 (Conv2D)            (None, 144, 144, 64)      36928     
_________________________________________________________________
activation_4 (Activation)    (None, 144, 144, 64)      0         
_________________________________________________________________
max_pooling2d_2 (MaxPooling2 (None, 72, 72, 64)        0         
_________________________________________________________________
conv2d_5 (Conv2D)            (None, 70, 70, 128)       73856     
_________________________________________________________________
activation_5 (Activation)    (None, 70, 70, 128)       0         
_________________________________________________________________
conv2d_6 (Conv2D)            (None, 68, 68, 128)       147584    
_________________________________________________________________
activation_6 (Activation)    (None, 68, 68, 128)       0         
_________________________________________________________________
max_pooling2d_3 (MaxPooling2 (None, 34, 34, 128)       0         
_________________________________________________________________
flatten_1 (Flatten)          (None, 147968)            0         
_________________________________________________________________
dense_1 (Dense)              (None, 64)                9470016   
_________________________________________________________________
activation_7 (Activation)    (None, 64)                0         
_________________________________________________________________
dense_2 (Dense)              (None, 1)                 65        
_________________________________________________________________
activation_8 (Activation)    (None, 1)                 0         
=================================================================
Total params: 9,757,089
Trainable params: 9,757,089
Non-trainable params: 0
_________________________________________________________________
None
Epoch 1/50
2070/2071 [============================>.] - ETA: 0s - loss: 0.5154 - acc: 0.7404Epoch 00000: val_acc improved from -inf to 0.83299, saving model to my_model_c_with_64_only_900_decay_feb_25_1best.h5
…
